model_best.pth.tar (torch, 603415 bytes, 12 tensors)

layers.0.weight f4 [16, 3, 5, 5]
-0.14024948 -0.10413439 -0.13605806 -0.114496596 -0.15006207 -0.06322662 -0.12510702 0.022790935
-0.038935557 -0.030179871 -0.11640344 -0.08538911 -0.15866171 -0.114872396 -0.13355274 -0.09386458
-0.051096912 -0.040855058 -0.086557984 -0.095667385 0.0010836598 -0.03483271 -0.14087647 -0.023910739
-0.110190794 -0.003917433 0.011607118 -0.041243028 -0.0071246075 -0.007233521 0.0051121423 0.05626711
-0.042400196 0.003720493 -0.02009094 -0.04696633 -0.038226843 0.12173037 0.055186033 0.047606915
0.041947976 -0.037175186 -0.0028325154 -0.049775172 -0.043338697 -0.001436528 0.044643376 0.04285029
-0.07416588 -0.00540603 0.14008643 0.08618081 0.17070808 0.11882525 0.15398881 0.059344932
0.05180497 0.02045885 0.022222735 0.05656328 0.15422386 0.12818359 0.020747188 0.062901154
0.07334009 0.049273517 0.07340358 0.050049074 0.11934376 0.1326715 0.004089435 -0.0028911936
0.092567585 0.096895054 0.108291075 0.05619994 -0.031938262 -0.02231018 0.074851975 -0.08038083
-0.05727904 0.08744268 0.07327519 -0.190131 0.1167066 0.02575274 -0.09500822 -0.11071609
0.12141608 0.0027798465 0.022954304 0.028735712 0.124071755 0.08334066 -0.11846801 -0.08694533
0.02542075 -0.04978483 -0.10662683 0.059758 0.13477898 0.092712305 0.06508875 0.00071686925
-0.1671286 0.068093956 -0.08101112 -0.07526284 -0.09343036 0.10165026 -0.027050598 -0.0052695083
-0.08831815 0.16823651 0.1187606 -0.13113022 -0.025382701 0.108330816 0.033075344 -0.04769455
0.034103233 0.0248394 -0.06850695 0.013626045 -0.039739877 -0.0032036966 -0.01904156 0.03212631
-0.0045014215 -0.11322958 0.033839967 -0.004627493 -0.083910875 -0.08472397 0.15136945 -0.026348317
-0.1081987 -0.058575552 0.046381645 0.059639376 0.040338162 0.030988617 0.16265127 -0.021235643
-0.18823299 -0.08324121 0.055583317 -0.03502491 -0.071194254 0.019923087 -0.0363716 -0.06431093
-0.01180801 -0.03881449 0.008928262 -0.09388655 0.043290053 -0.13152185 -0.054359656 -0.0908889
-0.0802732 -0.07121168 -0.107007526 -0.034639426 -0.06984859 -0.083156995 -0.071800895 0.03566448
-0.096884854 0.013246448 0.082413 -0.0133254 0.06739972 0.06547171 -0.04489468 0.09388793
0.03197811 0.050285894 0.118816465 -0.03587419 0.095896564 0.078275345 0.1607801 0.11279538
0.11884972 0.14734694 0.13764438 0.13604647 0.08766972 0.14500195 0.12096845 0.18980211
0.0029051884 0.06326037 0.035038166 -0.10384915 -0.109238595 -0.08232366 -0.10451737 0.05446687
-0.05850457 0.04703968 -0.044929065 -0.07777118 0.03361882 -0.0053613773 -0.14070815 -0.027838133
-0.08073938 -0.03864591 -0.07485979 -0.08989382 -0.044852447 -0.07051413 -0.07812999 -0.05322926
-0.11627485 -0.064521 0.049197413 -0.062104028 0.02460724 0.12516873 0.029150732 0.0358993
-0.011292887 -0.06174457 -0.11617001 -0.076489605 -0.047492083 -0.094280064 -0.06897514 0.052237734
-0.043572877 0.029862478 -0.021418998 -0.11797501 -0.013911993 -0.12105914 -0.043106195 -0.04930421
-0.005055868 0.029053692 -0.021913625 0.003828435 -0.011543446 -0.18582729 -0.057988632 -0.13782482
-0.10427681 -0.17433192 -0.11306498 -0.020682374 0.025172815 -0.022713156 -0.101420544 -0.08037924
00000000: 8f9d 0fbe 6944 d5bd ce52 0bbe 317d eabd
00000010: dfa9 19be f57c 81bd 0e1c 00be 0eb4 ba3c
00000020: e47a 1fbd c73b f7bc ed64 eebd 7ce0 aebd
00000030: 3778 22be 3842 ebbd 0dc2 08be 133c c0bd
00000040: ff4a 51bd a257 27bd 5045 b1bd 43ed c3bd
00000050: 9709 8e3a beac 0ebd ec41 10be 74e0 c3bc
00000060: b6ab e1bd cf5d 80bb c82b 3e3c 73ee 28bd
00000070: 8a75 e9bb 2c07 edbb c283 a73b 5778 663d
00000080: d4ab 2dbd 84d3 733b c195 a4bc c45f 40bd
00000090: c093 1cbd c64d f93d c00a 623d 78ff 423d
000000a0: a4d1 2b3d 0245 18bd b9a1 39bb 0de1 4bbd
000000b0: eb83 31bd e249 bcba f9db 363d c983 2f3d
000000c0: 48e4 97bd 1125 b1bb d172 0f3e 917f b03d
000000d0: 19ce 2e3e a75a f33d 3eaf 1d3e ac13 733d
000000e0: 7331 543d 5199 a73c 740c b63c e6ae 673d
000000f0: dcec 1d3e 8f42 033e 02f6 a93c 52d2 803d
00000100: 5433 963d 07d3 493d 9e54 963d 4200 4d3d
00000110: 806a f43d 0adb 073e ab00 863b 2e7a 3dbb
00000120: 1394 bd3d ea70 c63d b6c7 dd3d e931 663d
00000130: b2d1 02bd d7c3 b6bc fe4b 993d b49e a4bd
00000140: 6d9d 6abd 2615 b33d 4e11 963d b3b1 42be
00000150: df03 ef3d 69f7 d23c ab93 c2bd 1ebf e2bd
00000160: fea8 f83d 162e 363b aa0a bc3c 2867 eb3c
00000170: 5519 fe3d 82ae aa3d 5b9f f2bd 6510 b2bd
00000180: 2d3f d03c 2eeb 4bbd 2b5f dabd cec4 743d
00000190: 8003 0a3e f3df bd3d 404d 853d 48ec 3b3a
000001a0: c223 2bbe d874 8b3d 28e9 a5bd 6723 9abd
000001b0: 6b58 bfbd 032e d03d 3799 ddbc d7ab acbb
000001c0: 25e0 b4bd 3146 2c3e c238 f33d 0047 06be
000001d0: 62ef cfbc 8cdc dd3d 037a 073d 5c5b 43bd
000001e0: d5af 0b3d ff7b cb3c 5f4d 8cbd c63f 5f3c
000001f0: 48c6 22bd 1cf5 51bb 0cfd 9bbc e196 033d
00000200: a980 93bb e9e4 e7bd c79b 0a3d 3aa2 97bb
00000210: 77d9 abbd c383 adbd 9800 1b3e 6dd8 d7bc
00000220: 4897 ddbd ebec 6fbd aefa 3d3d 6b48 743d
00000230: a139 253d d7db fd3c 0e8e 263e 5ff6 adbc
00000240: 26c0 40be 5e7a aabd 55ab 633d 4876 0fbd
00000250: 4bce 91bd be35 a33c 63fa 14bd 73b5 83bd
00000260: 6276 41bc f1fb 1ebd d847 123c 9747 c0bd
00000270: e950 313d aaad 06be 3ba8 5ebd f623 babd
00000280: 4766 a4bd 6ed7 91bd c326 dbbd 12e2 0dbd
00000290: c70c 8fbd 374e aabd 590c 93bd eb14 123d
000002a0: 916b c6bd a107 593c 26c8 a83d c752 5abc
000002b0: dd08 8a3d 0816 863d 7ce3 37bd 5148 c03d
000002c0: 7bfb 023d 95f8 4d3d 0c56 f33d d1f0 12bd
000002d0: 6b65 c43d d34e a03d 8aa3 243e 4401 e73d
000002e0: 7b67 f33d 1ee2 163e a6f2 0c3e c44f 0b3e
000002f0: 2f8c b33d 647b 143e 4fbe f73d 7c5b 423e
00000300: f964 3e3b a78e 813d 2e84 0f3d ddae d4bd
00000310: 7cb8 dfbd 4f99 a8bd 340d d6bd a718 5f3d
00000320: 7da2 6fbd aeac 403d 8a07 38bd 7f46 9fbd
00000330: e3b3 093d 7eae afbb cc15 10be cc0c e4bc
00000340: b05a a5bd 2c4b 1ebd 1750 99bd 401a b8bd
00000350: 33b7 37bd b669 90bd 9e02 a0bd ed06 5abd
00000360: 8221 eebd 9623 84bd 3a83 493d cb60 7ebd
00000370: 1f95 c93c 3b2c 003e 84cd ee3c 250b 133d
00000380: cd05 39bc e0e7 7cbd 8bea edbd 95a6 9cbd
00000390: 0f87 42bd e815 c1bd d742 8dbd 3cf7 553d
000003a0: 7979 32bd 28a2 f43c e576 afbc e29c f1bd
000003b0: 21ef 63bc dbed f7bd 1f90 30bd 36f3 49bd
000003c0: b2ab a5bb 0202 ee3c 3484 b3bc 7be6 7a3b
000003d0: b920 3dbc 8249 3ebe 7d85 6dbd f321 0dbe
000003e0: 158f d5bd 1184 32be 9d8e e7bd 156e a9bc
000003f0: 3837 ce3c f110 babc 93b5 cfbd df9d a4bd

layers.0.bias f4 [16]
0.104344025 0.044555645 0.122462004 -0.09413904 -0.15066999 -0.01318131 -0.0777945 0.11913015
-0.0351543 -0.120650895 -0.039232623 -0.03261696 0.052128263 -0.012626955 -0.11781649 -0.050285816
00000000: 52b2 d53d fb7f 363d 5ccd fa3d f8cb c0bd
00000010: 3c49 1abe 6cf6 57bc b952 9fbd 82fa f33d
00000020: f5fd 0fbd d117 f7bd 63b2 20bd 5d99 05bd
00000030: 7284 553d 4ae1 4ebc c649 f1bd 80f8 4dbd

layers.1.weight f4 [16]
1.2132182 0.8740204 1.257084 1.2481968 0.7680466 0.903685 1.0763524 0.9878117
1.062816 1.0141939 1.0138322 1.0872283 0.9734158 0.98484963 1.0337867 0.9038282
00000000: bc4a 9b3f cdbf 5f3f 21e8 a03f eac4 9f3f
00000010: b49e 443f e657 673f eac5 893f 3ae1 7c3f
00000020: 5b0a 883f 1bd1 813f 41c5 813f 4c2a 8b3f
00000030: c731 793f 1b1f 7c3f 1f53 843f 4961 673f

layers.1.bias f4 [16]
-0.078853376 -0.94059336 -0.2978192 -0.30457708 0.10608738 -0.5041615 0.0023241048 -0.6246847
-0.4266337 -0.44688743 -0.56113225 -0.5794374 -0.7472484 -0.61971754 0.39021093 -0.53806674
00000000: e17d a1bd baca 70bf c27b 98be 87f1 9bbe
00000010: 5744 d93d ba10 01bf 0250 183b 56eb 1fbf
00000020: bb6f dabe 6ece e4be 5da6 0fbf 0256 14bf
00000030: ac4b 3fbf cfa5 1ebf bac9 c73e bebe 09bf

layers.1.running_mean f4 [16]
0.37713894 0.044554215 0.106788725 0.26339576 -0.013275092 -0.020947441 -0.37637755 0.122876324
-0.086828955 -0.13074096 -0.015566868 0.060548194 0.050150514 -0.013798327 -0.3561644 -0.035051104
00000000: 5b18 c13e 7b7e 363d 0cb4 da3d cfdb 863e
00000010: c57f 59bc f899 abbc 8fb4 c0be 95a6 fb3d
00000020: 61d3 b1bd f5e0 05be 2d0c 7fbc 6201 783d
00000030: a06a 4d3d 6112 62bc 2e5b b6be bf91 0fbd

layers.1.running_var f4 [16]
2.3735664 0.10324102 0.16206867 10.917994 1.293799 0.09599159 13.872234 0.07567668
0.2696947 0.4083499 0.058012333 0.43781018 0.032599997 0.084222466 1.9638456 0.034350973
00000000: 83e8 1740 0770 d33d 54f5 253e 1ab0 2e41
00000010: 359b a53f 3d97 c43d acf4 5d41 60fc 9a3d
00000020: 6c15 8a3e 3d13 d13e 579e 6d3d a828 e03e
00000030: 9387 053d d47c ac3d 4b5f fb3f 9bb3 0c3d

layers.6.weight f4 [256, 400]
0.03876929 0.04319039 0.0222091 0.03917757 0.052386753 0.026026744 0.024585968 0.04702905
0.01840343 0.04693806 0.008322195 0.034313887 0.10858967 0.0060965265 0.032571007 0.06751854
0.02055584 0.098101534 0.08186449 -0.045581102 -0.004551859 0.063866116 0.09345283 -0.0043863477
-0.033135545 -0.015270054 -0.010027838 -0.089174636 -0.0541204 -0.030522909 -0.0024218273 0.032364756
0.0593464 -0.042328727 0.0660158 0.066560246 0.02799893 -0.024970092 0.0072131837 0.057536196
0.091097586 -0.017297164 0.041851718 0.008811889 0.003944663 0.12967555 0.10356789 0.0015628921
0.012173402 0.09962652 -0.07217821 -0.05448178 -0.053108245 -0.0556757 -0.09595955 -0.007432494
-0.08740689 -0.085953645 -0.07379867 -0.082863085 -0.012435055 -0.015838291 -0.03168375 -0.004431895
-0.08140719 0.016735129 0.00047252275 -0.007183825 0.04747767 0.008619317 0.084608376 0.1133425
0.06454542 0.09747633 0.14874274 0.0006885209 -0.082712695 -0.019037057 -0.07801207 -0.06696062
0.008862284 -0.033615217 -0.0074502905 -0.05202413 -0.004554274 0.0009834508 -0.04803335 0.007847684
-0.02044056 0.0061283996 -0.06274838 -0.1036074 -0.09892357 -0.06636749 -0.009963367 -0.0849407
-0.040804546 -0.05141563 -0.013709963 -0.047350105 -0.04067391 -0.015776966 -0.021704758 0.0027935095
-0.024028752 -0.0016554238 0.051550984 -0.008482549 -0.0116820475 -0.018639347 -0.05171486 -0.015304965
-0.0051370757 -0.046134856 -0.06432906 -0.08170261 -0.0057673664 0.013131217 -0.045741286 -0.068393074
-0.0029983553 -0.038747266 -0.015154922 -0.017135631 -0.06414884 0.06603448 0.03092739 -0.005908165
0.009471681 0.087532416 0.12477383 -0.00745801 -0.006262329 0.04773292 0.091230325 0.117927305
0.076257996 0.05173688 0.038681008 0.1434155 0.058034457 0.004577451 0.039588667 0.028161792
0.07848073 0.12661877 -0.030132411 0.021667503 0.016804203 0.0779382 -0.05103083 -0.05094304
-0.069984786 0.003480411 -0.10725256 -0.097222455 -0.059718993 -0.032192066 -0.060396556 -0.13378154
-0.11502357 -0.08932812 -0.10822884 -0.08564753 -0.13945746 -0.12141181 -0.120119765 -0.13774727
-0.08835152 -0.09074722 -0.10527257 -0.14740601 -0.21641566 -0.17309356 -0.104955606 0.07471765
0.075077266 -0.019688396 0.01009698 -0.03614638 0.06953847 0.030336298 0.0134934075 0.021012723
0.06230574 0.06310115 0.03991039 0.018181747 0.037694752 0.037223417 0.06498259 0.046494786
0.037075512 -0.026107494 0.036516514 0.10204451 0.11917772 0.12527497 0.014654949 0.07185416
0.051992312 -0.03393745 -0.06406781 0.029525088 0.0042102938 -0.016446853 -0.02504431 -0.0088284
-0.041395914 0.018887829 0.086979024 0.016627688 0.00738595 -0.022197139 -0.013210347 0.047549654
0.082558125 0.04629005 0.02585346 0.004150162 0.033709843 -0.021807065 -0.020290291 0.024195377
-0.04265765 -0.033333223 -0.06501689 -0.045520585 0.031102018 0.003820679 -0.06300095 -0.05858704
-0.023599686 -0.024917731 0.062738925 -0.012571891 -0.03859116 0.023116602 0.036085434 -0.046446744
-0.04621103 -0.06974766 -0.019748835 0.017366342 -0.040451437 0.042747986 -0.0527032 -0.020820593
-0.024796952 -0.027955435 0.0010975421 -0.042071518 -0.02639254 -0.07954296 -0.005576071 0.00061889854
00000000: 8ccc 1e3d 68e8 303d dcef b53c a978 203d
00000010: 7e93 563d 0a36 d53c 8368 c93c 88a1 403d
00000020: cac2 963c 2042 403d d159 083c b88c 0c3d
00000030: 4364 de3d 5fc5 c73b 2d69 053d 2947 8a3d
00000040: b964 a83c 75e9 c83d 92a8 a73d 40b3 3abd
00000050: c327 95bb 3dcc 823d 3364 bf3d 5abb 8fbb
00000060: 23b9 07bd 402f 7abc cd4b 24bc 31a1 b6bd
00000070: 5aad 5dbd 2e0b fabc 85b7 1ebb e890 043d
00000080: 3615 733d e360 2dbd 4b33 873d bd50 883d
00000090: 035e e53c 148e ccbc 925c ec3b 13ab 6b3d
000000a0: 5f91 ba3d c8b2 8dbc b56c 2b3d be5f 103c
000000b0: 3b42 813b abc9 043e 671b d43d f5d9 cc3a
000000c0: f372 473c fd08 cc3d 2bd2 93bd 4928 5fbd
000000d0: 0888 59bd 340c 64bd 7186 c4bd 478c f3bb
000000e0: 6202 b3bd 7708 b0bd c223 97bd 1fb4 a9bd
000000f0: 67bc 4bbc 4ebf 81bc d2c6 01bd 6e39 91bb
00000100: d0b8 a6bd 1c18 893c eebc f739 4b66 ebbb
00000110: f277 423d 0938 0d3c 2847 ad3d 1d20 e83d
00000120: 6430 843d aca1 c73d 0450 183e db7d 343a
00000130: 4665 a9bd 9af3 9bbc cbc4 9fbd a622 89bd
00000140: 1d33 113c 1cb0 09bd 9121 f4bb 4117 55bd
00000150: 053c 95bb 22e7 803a 9ebe 44bd 9393 003c
00000160: f672 a7bc bed0 c83b 3982 80bd 1e30 d4bd
00000170: 7198 cabd aeeb 87bd 643d 23bc 64f5 adbd
00000180: ab22 27bd 3299 52bd c19f 60bc 2ff2 41bd
00000190: b099 26bd b23e 81bc 2dce b1bc 5013 373b
000001a0: f2d7 c4bc cefa d8ba 2027 533d 64fa 0abc
000001b0: 0f66 3fbc 8bb1 98bc f6d2 53bd adc1 7abc
000001c0: ea54 a8bb e7f7 3cbd f4be 83bd b353 a7bd
000001d0: 2dfc bcbb 5124 573c 375b 3bbd ab11 8cbd
000001e0: 0e80 44bb 74b5 1ebd 5a4c 78bc 0660 8cbc
000001f0: 7860 83bd 163d 873d 705b fd3c 4899 c1bb
00000200: 1c2f 1b3c 3244 b33d 6c89 ff3d 5362 f4bb
00000210: 3934 cdbb 9883 433d f7d6 ba3d df83 f13d
00000220: 272d 9c3d 0dea 533d fa6f 1e3d 83db 123e
00000230: 8ab5 6d3d 71fe 953b ba27 223d 8fb3 e63c
00000240: 81ba a03d 5aa8 013e 3fd8 f6bc 0c80 b13c
00000250: f8a8 893c 109e 9f3d b405 51bd a6a9 50bd
00000260: 2f54 8fbd 9b17 643b 3ba7 dbbd 911c c7bd
00000270: e79b 74bd d4db 03bd 6162 77bd 07fe 08be
00000280: 7a91 ebbd a9f1 b6bd 15a7 ddbd f967 afbd
00000290: f0cd 0ebe c1a6 f8bd 5a01 f6bd 9f0d 0dbe
000002a0: a4f1 b4bd aed9 b9bd 2599 d7bd 9af1 16be
000002b0: 119c 5dbe 703f 31be f7f2 d6bd 9105 993d
000002c0: 1cc2 993d 8f49 a1bc ce6d 253c 3a0e 14bd
000002d0: 2f6a 8e3d d483 f83c 7413 5d3c e022 ac3c
000002e0: 4e34 7f3d 2d3b 813d 1479 233d e3f1 943c
000002f0: d065 1a3d 9577 183d 9815 853d 5171 3e3d
00000300: 7edc 173d 62df d5bc 5792 153d b6fc d03d
00000310: 7313 f43d 1548 003e 501b 703c 4628 933d
00000320: e4f5 543d ff01 0bbd fc35 83bd 99de f13c
00000330: 81f6 893b 8dbb 86bc ba29 cdbc fea4 10bc
00000340: c38e 29bd a6ba 9a3c 0f22 b23d ca36 883c
00000350: d705 f23b c6d6 b5bc 3670 58bc 6dc3 423d
00000360: 3c14 a93d a39a 3d3d a3ca d33c 15fe 873b
00000370: 5513 0a3d bba4 b2bc d337 a6bc 6235 c63c
00000380: cab9 2ebd 6b88 08bd 9327 85bd cb73 3abd
00000390: a9c9 fe3c 5b64 7a3b a406 81bd f7f8 6fbd
000003a0: 2154 c1bc 4520 ccbc 447d 803d 55fa 4dbc
000003b0: c411 1ebd 075f bd3c 52ce 133d f13e 3ebd
000003c0: c747 3dbd dcd7 8ebd 4fc8 a1bc dc43 8e3c
000003d0: 68b0 25bd 8318 2f3d 50df 57bd f38f aabc
000003e0: fa22 cbbc cc02 e5bc 67db 8f3a 2f53 2cbd
000003f0: 2b35 d8bc 6be7 a2bd 79b7 b6bb 943d 223a

layers.6.bias f4 [256]
-0.46453935 0.29024547 0.14323695 0.80793905 0.37820554 0.20035322 -0.26891282 -0.19888572
0.63613737 0.26751056 0.7269462 -0.11984912 -0.3094237 0.23369291 0.0028900101 0.22728816
-0.13887323 -0.061013896 -0.10491093 0.35007533 -0.30003667 -0.04429702 -0.069086194 0.24902557
0.09700025 0.2518754 0.009582389 0.53912836 -0.21777241 -0.123465225 -0.3588531 0.2783971
0.11407554 0.17811406 0.1370686 0.08922027 0.01715866 -0.1355872 -0.2525763 0.06779551
-0.4747842 0.023876734 -0.08098827 -0.05614024 -0.07840544 0.40586972 0.09301826 0.60895014
-0.056022268 0.43448633 -0.15400223 0.6691923 0.06883398 -0.058206063 0.21309814 -0.05098278
0.37302816 -0.18515848 -0.25268093 0.067349575 -0.5479583 -0.114144914 0.09543623 -0.19529366
0.30385387 -0.17943147 -0.07493111 -0.015658025 0.45226032 -0.09606132 0.08806485 0.26614094
0.42706275 0.34081134 0.72308177 0.079989225 0.32968453 0.6986997 0.12623535 -0.16388993
0.59513104 0.36185166 0.097491995 0.13116781 -0.008906506 -0.065688804 0.03279572 0.5500141
0.25726926 0.39432982 -0.028652785 0.25294697 0.008915621 -0.1741955 -0.62550515 0.31535947
0.4507708 -0.008905363 0.35260168 -0.18692745 -0.17618038 0.295331 0.04932874 0.26583272
-0.004793736 0.32276848 0.04710679 -0.04060056 0.17306468 0.24677093 0.002273921 -0.037122495
-0.04316 0.33332235 0.28143707 0.5364064 -0.54683465 -0.068779096 0.4115243 0.31098318
0.47208917 -0.020504463 0.7093901 0.18232332 0.042749275 -0.10009 0.46214095 0.07250819
-0.11014531 -0.034546986 0.42468044 -0.41676298 -0.0664499 -0.040509284 -0.3824379 0.20102064
-0.7769456 -0.065323554 0.5135634 0.27413917 0.4312568 0.65707636 -0.015750397 0.13227168
0.19204028 0.013334578 0.031937174 0.47296548 -0.18719988 0.3785898 -0.287849 -0.14314972
-0.020282619 0.3080211 -0.0001346978 0.116695665 0.7104688 0.36696014 0.397171 -0.22701432
-0.095336564 0.020784972 -0.08980047 0.5967232 0.0465866 -0.52245957 -0.16787674 0.20609632
-0.31455958 -0.038890798 0.023064774 0.74463844 -0.16935073 -0.10771017 0.43778688 -0.25865898
0.27568886 0.54435045 0.30085397 0.0640117 -0.19387299 0.422964 0.15293016 -0.0572959
0.026093151 0.25601983 0.105636634 0.5848404 0.19658063 0.08461426 0.2571399 -0.14255878
0.019999791 0.072529465 0.3737918 0.100945525 0.011317797 -0.06668317 0.2977603 0.34839225
-0.014871026 0.17625752 0.15421583 0.48260674 0.5861805 0.2789411 -0.03588474 0.026438642
-0.2866078 0.10592266 -0.027426744 0.14023145 0.12977356 -0.030533534 0.36122674 0.07763866
0.048610914 -0.352158 -0.07917624 -0.2403878 -0.07954339 -0.2997451 0.4216709 -0.062285453
0.21833234 0.6705169 -0.19182129 1.0252151 -0.07646261 -0.15318666 -0.011942538 0.3683319
0.15632966 -0.021983817 0.34578764 -0.48066783 -0.04365358 0.19234231 -0.020789752 -0.22441785
0.41039073 -0.09262756 0.65462106 0.50050545 0.41274267 0.54025275 -0.48601514 -0.07831955
0.24872456 -0.18375805 0.48950917 0.3228881 0.30012515 0.32976788 0.07164138 -0.07165656
00000000: 1ad8 edbe 0e9b 943e b5ac 123e 18d5 4e3f
00000010: 28a4 c13e 6529 4d3e f1ae 89be b3a8 4bbe
00000020: e6d9 223f 25f7 883e 2519 3a3f 7573 f5bd
00000030: c96c 9ebe 324d 6f3e 5366 3d3b 3abe 683e
00000040: c934 0ebe b5e9 79bd 8bdb d6bd 133d b33e
00000050: 689e 99be cb70 35bd 107d 8dbd 8f00 7f3e
00000060: 11a8 c63d d0f5 803e 74ff 1c3c 5104 0a3f
00000070: bbff 5ebe 56db fcbd 98bb b7be 118a 8e3e
00000080: 70a0 e93d 8863 363e b65b 0c3e 1eb9 b63d
00000090: 5190 8c3c 5fd7 0abe ae51 81be 5fd8 8a3d
000000a0: ea16 f3be 2499 c33c 2edd a5bd 4ff3 65bd
000000b0: 0893 a0bd 28ce cf3e 5c80 be3d 28e4 1b3f
000000c0: 9b77 65bd fe74 de3e c3b2 1dbe 3050 2b3f
000000d0: d4f8 8c3d 7b69 6ebd 6636 5a3e 52d3 50bd
000000e0: 8cfd be3e 2f9a 3dbe 655f 81be 93ee 893d
000000f0: ff46 0cbf cfc4 e9bd 1274 c33d 10fb 47be
00000100: bc92 9b3e e2bc 37be 7b75 99bd 4245 80bc
00000110: aa8e e73e ccbb c4bd 585b b43d a043 883e
00000120: f8a7 da3e d37e ae3e e31b 393f 64d1 a33d
00000130: 69cc a83e fcdd 323f d743 013e c3d2 27be
00000140: 825a 183f 9f44 b93e e2a9 c73d db50 063e
00000150: 98ec 11bc da87 86bd ce54 063d b9cd 0c3f
00000160: ccb8 833e 99e5 c93e 3fb9 eabc 4482 813e
00000170: d312 123c 4e60 32be 1b21 20bf cc76 a13e
00000180: 6ecb e63e cde7 11bc 3588 b43e e969 3fbe
00000190: a168 34be a035 973e ef0c 4a3d 3a1b 883e
000001a0: c614 9dbb e941 a53e 0df3 403d c64c 26bd
000001b0: de37 313e 85b1 7c3e 1006 153b c20d 18bd
000001c0: 8ac8 30bd 3aa9 aa3e 8518 903e ee51 093f
000001d0: 5bfd 0bbf 0edc 8cbd 50b3 d23e 3039 9f3e
000001e0: acb5 f13e faf8 a7bc 979a 353f f7b2 3a3e
000001f0: dd19 2f3d fcfb ccbd bd9d ec3e 2d7f 943d
00000200: dd93 e1bd 2481 0dbd b76f d93e f561 d5be
00000210: e316 88bd 10ed 25bd e7ce c3be 5bd8 4d3e
00000220: e8e5 46bf 5bc8 85bd e478 033f f85b 8c3e
00000230: b1cd dc3e 2836 283f fa06 81bc 3a72 073e
00000240: 35a6 443e 4679 5a3c 8ed0 023d 8828 f23e
00000250: 53b1 3fbe 86d6 c13e f260 93be d795 12be
00000260: bc27 a6bc f1b4 9d3e aa3d 0db9 23fe ee3d
00000270: 49e1 353f 33e2 bb3e ff59 cb3e 7176 68be
00000280: d13f c3bd 3f45 aa3c 4fe9 b7bd dac2 183f
00000290: 97d1 3e3d e9bf 05bf e1e7 2bbe ea0a 533e
000002a0: f40d a1be f54b 1fbd 56f2 bc3c a0a0 3e3f
000002b0: 476a 2dbe 2697 dcbd 9a25 e03e f36e 84be
000002c0: 1727 8d3e 8d5a 0b3f 8809 9a3e 9118 833d
000002d0: a486 46be bd8e d83e b999 1c3e 1baf 6abd
000002e0: 4ec1 d53c 0815 833e 0558 d83d 1ab8 153f
000002f0: 6f4c 493e 3e4a ad3d d7a7 833e eefa 11be
00000300: 9ad6 a33c 548a 943d a461 bf3e 87bc ce3d
00000310: 486e 393c 3091 88bd 0a74 983e 7860 b23e
00000320: 9ba5 73bc da7c 343e c1ea 1d3e 3b18 f73e
00000330: ed0f 163f 5ed1 8e3e e1fb 12bd da95 d83c
00000340: 42be 92be fbed d83d 0dae e0bc d598 0f3e
00000350: 5ce3 043e 7621 fabc b6f2 b83e 0501 9f3d
00000360: 3d1c 473d 0e4e b4be 2727 a2bd 3828 76be
00000370: a5e7 a2bd 3178 99be 40e5 d73e 081f 7fbd
00000380: 8392 5f3e ffa6 2b3f cd6c 44be 403a 833f
00000390: 6e98 9cbd f7dc 1cbe a3aa 43bc 0096 bc3e
000003a0: e214 203e 6817 b4bc 140b b13e 181a f6be
000003b0: 19ce 32bd 62f5 443e 454f aabc cbcd 65be
000003c0: bc1e d23e 85b3 bdbd 3f95 273f 2021 003f
000003d0: 0253 d33e 014e 0a3f fad6 f8be 0066 a0bd
000003e0: a7b1 7e3e 122b 3cbe f2a0 fa3e 9751 a53e
000003f0: 01aa 993e 56d7 a83e b7b8 923d adc0 92bd

layers.8.weight f4 [128, 256]
0.047625683 -0.06688041 -0.11230007 0.057550777 -0.039706726 -0.18610846 0.09951437 0.20011705
-0.010874788 -0.090991564 0.03927597 -0.025713583 -0.0044032615 -0.16513884 0.04956144 0.002163888
-0.039553903 0.06119789 0.031316835 -0.14997028 0.021936357 -0.017962743 -0.010088054 0.016471356
0.08328931 0.101866685 0.06350384 -0.12501034 0.11808893 0.0006074076 0.048662487 0.049739182
0.04772323 0.0041497624 0.050663944 0.02562804 0.055972718 -0.017795816 -0.019845307 -0.050252926
0.039578967 0.06122156 0.08136597 0.0806419 0.035312302 0.110936195 -0.1970969 0.110608645
0.03192638 0.0063278093 0.07944076 0.11917195 0.09433409 -0.0054335822 -0.07386739 0.042832494
0.1657992 0.0402946 0.036567725 0.03031456 -0.010198396 0.00010718458 0.14969292 0.0025086938
-0.019463584 0.027250687 0.009069796 -0.10497829 -0.08958028 0.04158263 -0.027572697 0.052529424
0.05414109 0.04236819 0.004462685 -0.120183006 -0.03124112 0.12655747 -0.048466824 0.015423719
-0.08661483 0.0016759448 -0.0026272559 -0.058800593 0.018200006 0.065157294 -0.034928735 0.036588192
0.034495402 -0.0778288 -0.008332012 -0.11571119 0.027658574 -0.04146012 0.06308212 0.18353869
-0.071776785 0.09068765 -0.065949544 -0.06282069 0.059897617 -0.02925149 -0.09207941 0.008336531
0.005086977 -0.19967404 0.060449366 -0.02641392 0.080053106 0.048166513 -0.07051002 0.014674149
-0.022642395 -0.13033944 -0.2222036 0.026824217 -0.0020238857 -0.016170744 0.030341476 0.10588479
-0.041796364 -0.037000638 0.11187911 0.023850994 0.10973239 -0.10465731 0.12528135 0.009242141
-0.017625647 0.013290867 0.010903902 0.02520618 0.047614705 0.0024611359 0.08312345 -0.0029984128
-0.036670715 0.035675697 0.013505971 -0.0069162804 0.1749156 0.09367524 -0.113307714 -0.055599928
-0.029695418 -0.006961006 0.083770394 0.08195995 0.036119264 0.043795455 -0.0017433112 -0.07975338
-0.0012219312 -0.029118167 -0.025389504 0.031772323 0.011186221 -0.043557502 -0.0595519 0.03993413
-0.027632572 -0.12907845 -0.099106506 -0.03426236 0.12097332 -0.05629767 0.026178252 0.010688583
-0.06709632 0.05334187 -0.024929741 -0.00022617128 0.06765596 0.091173 0.076567635 -0.04671825
0.027656345 -0.0418048 -0.1058945 -0.13640957 0.03359144 0.00080684596 0.06451205 0.13039607
-0.077893406 -0.10145882 -0.030073337 -0.050364826 -0.0135581065 -0.037965503 -0.06034381 -0.06485638
0.04510137 -0.22616202 0.123974584 0.04026325 0.005796624 0.13464528 -0.014915966 -0.029343275
-0.08459695 0.01735933 0.025655136 -0.04532302 -0.037673086 0.06526266 0.07818349 0.07353742
-0.032819815 -0.05250219 0.022318322 0.022159135 0.060357843 0.0068386844 0.11812376 0.15090697
-0.0840634 0.08062483 0.044526268 -0.06132831 0.04039764 0.08246949 0.013654068 0.07983671
-0.033249542 -0.0039022604 0.017797379 0.1291386 -0.02984734 0.06807341 -0.032110836 -0.09403473
-0.035103574 0.06033127 0.044643596 -0.045489736 0.029411163 -0.09979441 0.033494156 0.06085213
0.0033890246 -0.08601772 0.018517515 0.0077681816 -0.046796486 -0.022495914 0.07288699 0.050784733
-0.0511459 -0.07255139 -0.114966825 -0.04011068 -0.025362168 0.1013526 0.036493417 -0.060369585
00000000: 2613 433d 99f8 88bd 94fd e5bd 5dba 6b3d
00000010: 85a3 22bd 3793 3ebe 31ce cb3d 7ceb 4c3e
00000020: 2b2c 32bc c959 babd d7df 203d 4ba5 d2bc
00000030: 3c49 90bb 281a 29be f000 4b3d 04d0 0d3b
00000040: 4603 22bd a4aa 7a3d 1546 003d cf91 19be
00000050: e0b3 b33c 9a26 93bc 5e48 25bc f0ee 863c
00000060: 9693 aa3d 7b9f d03d 4d0e 823d b602 00be
00000070: 9cd8 f13d 6f3a 1f3a 5152 473d 50bb 4b3d
00000080: 6f79 433d bbfa 873b ff84 4f3d e5f1 d13c
00000090: a643 653d 88c8 91bc a092 a2bc 03d6 4dbd
000000a0: 8e1d 223d 75c3 7a3d 34a3 a63d 9527 a53d
000000b0: a2a3 103d 8432 e33d c5d3 49be c986 e23d
000000c0: 3cc5 023d 8359 cf3b d6b1 a23d 6c10 f43d
000000d0: 3b32 c13d 310c b2bb c947 97bd 2071 2f3d
000000e0: 44c7 293e f30b 253d 0ac8 153d 3d56 f83c
000000f0: 2c17 27bc 49c8 e038 1a49 193e e668 243b
00000100: 1872 9fbc d53c df3c 7b99 143c dcfe d6bd
00000110: de75 b7bd 8c52 2a3d 23e0 e1bc 1829 573d
00000120: 0cc3 5d3d 448a 2d3d b73b 923b 8222 f6bd
00000130: 61ed ffbc 4898 013e 2685 46bd c4b3 7c3c
00000140: 1e63 b1bd 60ab db3a 0a2e 2cbb e4d8 70bd
00000150: 2e18 953c 3071 853d 6f11 0fbd 80dd 153d
00000160: 0d4b 0d3d b564 9fbd fe82 08bc fdf9 ecbd
00000170: 3c94 e23c 16d2 29bd 3331 813d 91f1 3b3e
00000180: b5ff 92bd 72ba b93d 8e10 87bd 22a8 80bd
00000190: 3457 753d d2a0 efbc 2194 bcbd f295 083c
000001a0: a8b0 a63b 5a77 4cbe c199 773d 0162 d8bc
000001b0: e2f2 a33d 404a 453d 8f67 90bd d86b 703c
000001c0: 8b7c b9bc b477 05be 5789 63be 76be db3c
000001d0: 2ba3 04bb 8278 84bc b08e f83c 20da d83d
000001e0: aa32 2bbd fb8d 17bd e020 e53d 2963 c33c
000001f0: 60bb e03d 9256 d6bd c149 003e 596c 173c
00000200: a963 90bc f0c1 593c 48a6 323c 317d ce3c
00000210: a307 433d 024b 213b a13c aa3d 0581 44bb
00000220: 0834 16bd ae20 123d 2648 5d3c f7a1 e2bb
00000230: 131d 333e ced8 bf3d e00d e8bd c0bc 63bd
00000240: ce43 f3bc 2719 e4bb d08f ab3d 9eda a73d
00000250: cbf1 133d dd62 333d d17f e4ba bd55 a3bd
00000260: 3529 a0ba 3989 eebc a6fd cfbc b223 023d
00000270: 6946 373c 5a69 32bd b1ec 73bd f891 233d
00000280: b45d e2bc 242d 04be 5af8 cabd b056 0cbd
00000290: dcc0 f73d 6398 66bd c673 d63c 2b1f 2f3c
000002a0: cc69 89bd 017d 5a3d 7539 ccbc 6428 6db9
000002b0: 358f 8a3d e9b8 ba3d 7ecf 9c3d a35b 3fbd
000002c0: 8f8f e23c 833b 2bbd 37df d8bd f3ae 0bbe
000002d0: 2e97 093d 8482 533a e51e 843d 8c86 053e
000002e0: 9486 9fbd a4c9 cfbd 5c5c f6bc 594b 4ebd
000002f0: d222 5ebc b781 1bbd 122b 77bd 6cd3 84bd
00000300: 37bc 383d 0497 67be 63e6 fd3d 14eb 243d
00000310: 9bf1 bd3b 74e0 093e 1962 74bc 4f61 f0bc
00000320: 2a41 adbd 2735 8e3c b82a d23c a2a4 39bd
00000330: 184f 1abd 6ea8 853d aa1e a03d c99a 963d
00000340: 126e 06bd 890c 57bd ead4 b63c 1387 b53c
00000350: c939 773d 0b17 e03b dfea f13d 5b87 1a3e
00000360: 6f29 acbd a21e a53d 2d61 363d 6533 7bbd
00000370: ff77 253d c4e5 a83d 50b5 5f3c 6e81 a33d
00000380: ac30 08bd 11bd 7fbb cfcb 913c e93c 043e
00000390: 6982 f4bc 126a 8b3d a786 03bd 4895 c0bd
000003a0: c4c8 0fbd ec1d 773d 34dc 363d 7253 3abd
000003b0: aeef f03c 0361 ccbd 2b31 093d 1540 793d
000003c0: 661a 5e3b 0f2a b0bd 0bb2 973c 3b8c fe3b
000003d0: acad 3fbd 5a49 b8bc c645 953d a703 503d
000003e0: 5d7e 51bd d395 94bd ba73 ebbd 194b 24bd
000003f0: 52c4 cfbc f491 cf3d 1f7a 153d 1946 77bd

layers.8.bias f4 [128]
-0.15787679 0.16535544 -0.40978345 0.65754324 -0.044383653 0.23836668 0.0020968823 -0.038502514
0.45004424 0.47418386 0.027301647 -0.025019873 0.22398926 0.35018724 0.262291 -0.04222894
0.120034076 -0.042791948 -0.38731456 0.25920552 0.2225052 -0.048313405 0.2610304 -0.06770373
0.25738427 0.44005826 -0.016491575 0.030558087 0.2732272 -0.07302536 0.44991383 0.58295035
-0.029161721 -0.30706885 0.16963631 0.13451421 -0.1694293 -0.18966092 -0.037787378 0.003479023
0.105202466 -0.08157546 0.12250026 0.23427746 0.01350666 0.022223046 0.16486655 0.16462973
-0.09709503 0.4462617 0.14752685 -0.05977599 0.3212031 0.42621604 -0.04464413 -0.062076107
0.25748882 -0.087498106 -0.019430788 -0.29611272 0.2736798 0.20827149 0.4344643 0.010241893
0.07598652 0.24477997 0.17648602 -0.14277723 -0.0021286611 0.08437361 0.33077663 0.07282441
0.102668405 -0.14259085 -0.18362322 0.22199887 0.054649327 0.25646403 0.022783568 0.19777328
-0.09899492 0.14790016 -0.11750214 0.17724092 0.060550425 -0.0586966 -0.03223975 -0.081779025
0.033082273 -0.008941464 0.20900789 0.4241278 -0.08862946 0.20578682 0.09284746 0.15782976
-0.21195185 0.29907262 0.14782017 0.07708679 0.5111485 0.0014649197 -0.042949963 0.4715802
0.45050097 -0.20111948 -0.112409115 0.02479211 -0.11299016 -0.1679364 0.2611401 -0.01708129
0.14499253 -0.005343712 0.24755031 0.48013693 -0.09826217 0.041257907 0.11398312 -0.01198044
0.42132282 0.5469499 -0.18746114 0.09638325 0.18707865 0.4560625 0.13706234 0.24440588
00000000: 74aa 21be f052 293e 23cf d1be c154 283f
00000010: a2cb 35bd 6516 743e d96b 093b d0b4 1dbd
00000020: 336c e63e 3ac8 f23e b4a7 df3c 7af6 ccbc
00000030: 715d 653e be4b b33e 024b 863e 41f8 2cbd
00000040: 6dd4 f53d 9c46 2fbd 184e c6be 96b6 843e
00000050: 67d8 633e 47e4 45bd c7a5 853e 41a8 8abd
00000060: dfc7 833e 514f e13e 5719 87bc f454 fa3c
00000070: 70e4 8b3e 528e 95bd 1b5b e63e 3c3c 153f
00000080: 90e4 eebc 2138 9dbe 24b5 2d3e 18be 093e
00000090: e07e 2dbe 7936 42be f0c6 1abd 5200 643b
000000a0: 6474 d73d 0911 a7bd 6be1 fa3d 6ee6 6f3e
000000b0: 0a4b 5d3c 1b0d b63c c7d2 283e b294 283e
000000c0: c2d9 c6bd 6a7c e43e 4711 173e abd7 74bd
000000d0: bc74 a43e fd38 da3e c3dc 36bd 8443 7ebd
000000e0: 93d5 833e 3532 b3bd 512d 9fbc 169c 97be
000000f0: c21f 8c3e 1f45 553e 1b72 de3e 9dcd 273c
00000100: d29e 9b3d 9aa7 7a3e c0b8 343e 3234 12be
00000110: 0281 0bbb 12cc ac3d 8e5b a93e f724 953d
00000120: d043 d23d 5603 12be ba07 3cbe ac53 633e
00000130: f9d7 5f3d 414f 833e 9ba4 ba3c 1485 4a3e
00000140: d9bd cabd 2473 173e f6a4 f0bd a57e 353e
00000150: b903 783d d96b 70bd d40d 04bd c37b a7bd
00000160: 4781 073d 387f 12bc 2a06 563e 4727 d93e
00000170: 5d83 b5bd c8b9 523e cf26 be3d 209e 213e
00000180: e809 59be 0c20 993e 2c5e 173e aedf 9d3d
00000190: a1da 023f 8c02 c03a 4dec 2fbd f672 f13e
000001a0: 10a8 e63e 44f2 4dbe c036 e6bd d318 cb3c
000001b0: 6367 e7bd 85f7 2bbe 28b4 853e 10ee 8bbc
000001c0: ec78 143e 4e1a afbb d47d 7d3e 82d4 f53e
000001d0: ad3d c9bd 0dfe 283d fb6f e93d 9b49 44bc
000001e0: a0b7 d73e e904 0c3f d0f5 3fbe 9564 c53d
000001f0: 8c91 3f3e 0681 e93e 125a 0c3e 8945 7a3e

layers.10.weight f4 [100, 128]
0.080030225 -0.05858884 -0.043684635 0.010727263 -0.107729614 0.007758184 0.012681283 -0.13776103
0.09467042 -0.15191928 -0.026245229 -0.07308228 0.020187855 -0.0046929354 -0.18355286 -0.048093595
-0.0065098274 0.009378966 0.08061208 -0.043913264 0.07268796 0.015982237 -0.072858304 -0.010993246
0.025550954 -0.10727404 -0.18338831 0.08143749 -0.16748062 0.026147794 -0.048505668 0.0043325396
-0.005956882 0.014839708 0.13738011 -0.047827553 0.086691566 -0.035680015 -0.05105195 -0.089974344
-0.051811274 -0.09946793 -0.0010806752 -0.06011038 -0.029268075 -0.06569508 0.033283003 -0.14928246
-0.17611215 -0.17789407 -0.050754167 0.013353693 -0.037346963 0.037012525 0.0049617714 -0.25254315
0.020433346 0.011008893 0.040526323 -0.1933945 0.04685915 -0.01704364 0.10519612 -0.0033483503
0.0187571 0.03220472 0.039259363 0.046426572 0.15681067 0.003425249 0.094841555 -0.1380439
0.0023009616 0.006516424 0.057726298 0.115747586 -0.030088862 -0.023100324 -0.19358496 0.07308534
0.11122926 0.023523951 0.12218312 -0.006128641 -0.32034948 0.012041734 0.10249257 -0.08317491
-0.11643881 -0.050956957 -0.13730848 -0.063365586 -0.030492254 -0.036561888 0.01285845 0.09304984
0.060137015 -0.083365336 -0.17437892 0.014355582 -0.05741092 0.044543177 -0.10727697 -0.12379675
-0.047436494 -0.13013755 0.029719478 0.10809427 -0.007563322 -0.22016461 0.033448566 -0.021929052
0.047368556 0.06426568 -0.01039275 -0.07397764 -0.06635486 -0.13736384 0.02067892 0.057084274
0.0051743463 0.14656153 -0.08666411 -0.2580387 -0.07688746 0.12348917 0.034319125 -0.17779139
-0.06636472 -0.14385837 -0.04793771 0.08177171 0.111096464 0.07520828 -0.06663044 0.03725974
-0.057297736 0.053079564 -0.095431186 -0.08458344 -0.069773644 0.10627337 -0.14892122 -0.03203559
-0.14186862 0.15209039 0.036255196 0.010429873 0.012199944 -0.017499918 0.057598587 -0.05487775
-0.08177117 -0.014715181 -0.022558143 0.000409556 0.10402953 -0.0653473 -0.056962177 0.0462937
-0.19546266 -0.001600126 -0.13090378 -0.10255218 -0.070353426 -0.023461333 -0.03073514 0.02341886
0.12197538 0.012267004 -0.004460437 0.024342904 -0.06859737 -0.055655785 0.016203834 -0.2728979
-0.016481113 -0.029201262 -0.006757353 -0.07880451 0.102984294 -0.15262039 -0.052516345 -0.0046512787
-0.031978276 -0.0005481326 0.027173351 -0.062841445 0.23697121 -0.08096542 -0.018245844 -0.100429974
0.0652944 0.13461427 -0.05600138 0.078228995 -0.1278005 -0.03142143 0.09799977 -0.23207857
-0.07848731 -0.046770282 -0.009364959 0.033768523 -0.17915985 -0.006123324 -0.15173833 -0.065677576
-0.070819944 0.01518004 -0.025700906 0.095564246 -0.24598612 -0.014994841 -0.01442307 -0.021330914
-0.22853656 -0.025136415 -0.09230527 0.06373694 0.028384821 -0.16644381 0.10675443 -0.17511232
-0.064184144 -0.053995352 0.082117476 -0.015611877 -0.044465076 -0.023043444 -0.07116285 -0.19067189
-0.15556586 0.092265345 -0.033957288 -0.0072068498 -0.045248616 0.013173466 -0.19864434 -0.08683887
-0.18802495 -0.026716923 -0.08012052 -0.019889697 -0.08061035 -0.126641 0.07918633 -0.09428287
-0.002035984 -0.042233232 0.02609454 -0.19843964 -0.001573115 0.12851064 0.069542885 -0.097483166
00000000: e3e6 a33d dafa 6fbd a9ee 32bd 67c1 2f3c
00000010: 58a1 dcbd 5d38 fe3b 28c5 4f3c 3a11 0dbe
00000020: 91e2 c13d ba90 1bbe 3c00 d7bc 2aac 95bd
00000030: 0061 a53c 32c7 99bb 48f5 3bbe cafd 44bd
00000040: 6450 d5bb 3caa 193c f217 a53d 65de 33bd
00000050: 6ddd 943d 2eed 823c bc36 95bd 041d 34bc
00000060: 3c50 d13c 7eb2 dbbd 25ca 3bbe b3c8 a63d
00000070: 0a80 2bbe e633 d63c e1ad 46bd faf7 8d3b
00000080: f331 c3bb 3f22 733c 5fad 0c3e d3e6 43bd
00000090: 598b b13d 3525 12bd d91b 51bd 7844 b8bd
000000a0: 0f38 54bd d8b5 cbbd 71a5 8dba 4d36 76bd
000000b0: 9ac3 efbc 248b 86bd c253 083d 80dd 18be
000000c0: be56 34be dd29 36be 9ae3 4fbd 73c9 5a3c
000000d0: 21f9 18bd 729a 173d 5b96 a23b 564d 81be
000000e0: d563 a73c a55e 343c eefe 253d 3509 46be
000000f0: 61ef 3f3d 1b9f 8bbc 1071 d73d ff6f 5bbb
00000100: 7da8 993c 19e9 033d 6dce 203d ca29 3e3d
00000110: fa92 203e 247a 603b 4a3c c23d 615b 0dbe
00000120: bbcb 163b ba87 d53b 6972 6c3d 120d ed3d
00000130: eb7c f6bc e43c bdbc 233b 46be c4ad 953d
00000140: 2bcc e33d 4db5 c03c 253b fa3d c4d2 c8bb
00000150: d904 a4be b14a 453c a0e7 d13d 9b57 aabd
00000160: 7977 eebd 3eb8 50bd 989a 0cbe d1c5 81bd
00000170: e4ca f9bc ebc1 15bd 40ac 523c ea90 be3d
00000180: 3b52 763d 72bb aabd 6390 32be ad33 6b3c
00000190: b627 6bbd e872 363d 07b4 dbbd 2789 fdbd
000001a0: c54c 42bd c742 05be 4376 f33c 8760 dd3d
000001b0: bed5 f7bb d572 61be 5d01 093d 8ea4 b3bc
000001c0: 8805 423d ba9d 833d 5a46 2abc 9781 97bd
000001d0: 0fe5 87bd 1ba9 0cbe d766 a93c 33d1 693d
000001e0: 908d a93b 3a14 163e f47c b1bd a61d 84be
000001f0: 2c77 9dbd e4e7 fc3d 3692 0c3d f20e 36be
00000200: 3aea 87bd 9c4f 13be 555a 44bd ed77 a73d
00000210: 8b86 e33d cc06 9a3d 8a75 88bd ab9d 183d
00000220: 08b1 6abd f569 593d 6d71 c3bd 153a adbd
00000230: 7ce5 8ebd daa5 d93d ce7e 18be c037 03bd
00000240: 0246 11be 95bd 1b3e 5480 143d 0fe2 2a3c
00000250: 46e2 473c fd5b 8fbc 7fec 6b3d 7ec7 60bd
00000260: a577 a7bd f117 71bc dbcb b8bc adb9 d639
00000270: 6f0d d53d ced4 85bd 2c51 69bd 769e 3d3d
00000280: 5d27 48be 52bb d1ba a40b 06be e106 d2bd
00000290: 7515 90bd fb31 c0bc 43c8 fbbc e9d8 bf3c
000002a0: 3ace f93d 8bfb 483c dc28 92bb c56a c73c
000002b0: c77c 8cbd 52f7 63bd e7bd 843c 46b9 8bbe
000002c0: 6603 87bc 7c37 efbc c96c ddbb 4264 a1bd
000002d0: 6ee9 d23d 8548 1cbe 611b 57bd c169 98bb
000002e0: a7fb 02bd 8eb0 0fba a69a de3c 04b3 80bd
000002f0: 95a8 723e 33d1 a5bd 4f78 95bc 3bae cdbd
00000300: 12b9 853d 53d8 093e b461 65bd 8636 a03d
00000310: 22de 02be c2b3 00bd 1ab4 c83d 01a6 6dbe
00000320: f4bd a0bd 3292 3fbd 7c6f 19bc dd50 0a3d
00000330: ae75 37be 2aa6 c8bb 4b61 1bbe f781 86bd
00000340: 0c0a 91bd b4b5 783c b58a d2bc 30b7 c33d
00000350: c9e3 7bbe ecac 75bc bd4e 6cbc 2bbe aebc
00000360: 7d05 6abe e2ea cdbc 8c0a bdbd 8388 823d
00000370: 4987 e83c 3f70 2abe 11a2 da3d a550 33be
00000380: fa72 83bd 3b2a 5dbd 352d a83d f5c8 7fbc
00000390: 0321 36bd 9bc5 bcbc d4bd 91bd 7e3f 43be
000003a0: a84c 1fbe 9df5 bc3d cc16 0bbd 7027 ecbb
000003b0: 9d56 39bd 85d5 573c 6c69 4bbe 94d8 b1bd
000003c0: 9d89 40be 73dd dabc 3a16 a4bd b8ef a2bc
000003d0: 0a17 a5bd 2eae 01be 712c a23d 6117 c1bd
000003e0: 256e 05bb c1fc 2cbd 37c4 d53c c333 4bbe
000003f0: fb30 ceba 4b98 033e 806c 8e3d 41a5 c7bd

layers.10.bias f4 [100]
0.057606257 0.14579132 -0.047640935 -0.14361256 -0.15526055 -0.02180778 -0.005327462 0.28816935
-0.1586045 0.30520588 -0.033850323 -0.26066107 0.18137829 -0.12016906 -0.20289356 0.06375098
0.10747041 -0.1586769 0.023837408 -0.19244242 0.059346594 -0.12846693 -0.26737952 -0.17653842
-0.11041362 0.0056274533 0.1379624 -0.016636208 0.06928818 0.23125607 0.0558668 -0.21240172
-0.13497378 -0.030951828 -0.07094737 0.036380865 -0.17270838 -0.12840952 -0.23431253 0.1572184
-0.2044533 0.17443793 -0.06635039 0.03292939 0.061267868 0.1002972 -0.008472532 -0.0839841
0.05438451 -0.17909078 -0.13508688 -0.19433591 0.028103294 0.064187214 0.28062686 0.2653945
-0.21212146 0.04844614 0.3235859 0.15578018 -0.09320031 -0.04830623 -0.02633643 0.045980766
-0.16809373 -0.022844423 -0.128328 -0.113000885 -0.09465875 0.053402115 -0.10766847 -0.069694124
-0.09571797 -0.117089815 -0.23362029 -0.09562779 -0.0009789022 0.0063515543 -0.25029737 -0.0754038
-0.121689424 0.15027481 0.09159687 0.3745246 -0.056829553 0.13978392 0.32976648 0.050880246
-0.36516604 0.14850482 -0.07996893 0.18484281 0.30917546 -0.067514084 -0.19896501 0.32078606
0.29845744 0.010259846 -0.113901146 0.12003008
00000000: 8af4 6b3d 524a 153e 2423 43bd 2c0f 13be
00000010: 9ffc 1ebe 3ba6 b2bc fe91 aebb ef8a 933e
00000020: 3869 22be f243 9c3e a3a6 0abd 5e75 85be
00000030: 3bbb 393e 321b f6bd 54c3 4fbe e08f 823d
00000040: 7219 dc3d 337c 22be ab46 c33c a00f 45be
00000050: 6a15 733d d68c 03be f8e5 88be 7dc6 34be
00000060: 8920 e2bd 8066 b83b 0446 0d3e a848 88bc
00000070: f6e6 8d3d 64ce 6c3e 96d4 643d d67f 59be
00000080: 9136 0abe b08e fdbc db4c 91bd 1a04 153d
00000090: 77da 30be c97d 03be a0ef 6fbe dcfd 203e
000000a0: 355c 51be db9f 323e b7e2 87bd f8e0 063d
000000b0: 04f4 7a3d 9e68 cd3d 60d0 0abc dbff abbd
000000c0: 4bc2 5e3d 9363 37be 3754 0abe feff 46be
000000d0: e138 e63c 9674 833d 53ae 8f3e cae1 873e
000000e0: 5e36 59be 766f 463d 0dad a53e d784 1f3e
000000f0: cedf bebd c1dc 45bd 7fbf d7bc 5456 3c3d
00000100: c320 2cbe 3a24 bbbc 6a68 03be 026d e7bd
00000110: 72dc c1bd 2dbc 5a3d 4981 dcbd cbbb 8ebd
00000120: c807 c4bd c9cc efbd 283a 6fbe 81d8 c3bd
00000130: 824e 80ba b320 d03b fa26 80be 4f6d 9abd
00000140: 4e38 f9bd a4e1 193e 2497 bb3d b0c1 bf3e
00000150: 1bc6 68bd 8423 0f3e 27d7 a83e ce67 503d
00000160: 0bf7 babe a611 183e c0c6 a3bd 6f47 3d3e
00000170: 3f4c 9e3e d344 8abd 7cbd 4bbe 123e a43e
00000180: 6acf 983e ea18 283c 0145 e9bd 55d2 f53d
